…
  "num_experts_per_token": 2,
  "num_hidden_layers": 32,
  "num_key_value_heads": 32,
  "pad_token_id": 0,
  "pretraining_tp": 1,
  "rms_norm_eps": 1e-05,
  "rope_scaling": null,
  "tie_word_embeddings": false,
  "torch_dtype": "float16",
  "transformers_version": "4.31.0",
  "use_cache": true,
  "vocab_size": 32000
}

Begin to load state dict
Begin to load state dict
Begin to load state dict
Begin to load state dict
[2024-01-23 23:48:05,399] [INFO] [partition_parameters.py:453:__exit__] finished initializing model with 12.92B parameters
MoELlavaLlamaForCausalLM(
  (model): MoELlavaLlamaModel(
    (embed_tokens): Embedding(32000, 4096, padding_idx=0)
    (layers): ModuleList(
      (0-31): 32 x MoELLamaDecoderLayer(
        (self_attn): LlamaAttention(
          (q_proj): Linear(in_features=4096, out_features=4096, bias=False)
          (k_proj): Linear(in_features=4096, out_features=4096, bias=False)
          (v_proj): Linear(in_features=4096, out_features=4096, bias=False)
          (o_proj): Linear(in_features=4096, out_features=4096, bias=False)
          (rotary_emb): LlamaRotaryEmbedding()
        )
        (mlp): MoELLamaMLP(
          (experts): ModuleList(
            (0-7): 8 x LlamaMLP(
              (gate_proj): Linear(in_features=4096, out_features=1376, bias=False)
              (up_proj): Linear(in_features=4096, out_features=1376, bias=False)
              (down_proj): Linear(in_features=1376, out_features=4096, bias=False)
              (act_fn): SiLUActivation()
            )
          )
          (switch): Linear(in_features=4096, out_features=8, bias=True)
        )
        (input_layernorm): LlamaRMSNorm()
        (post_attention_layernorm): LlamaRMSNorm()
      )
    )
    (norm): LlamaRMSNorm()
  )
  (lm_head): Linear(in_features=4096, out_features=32000, bias=False)
)
Adding LoRA adapters...
[2024-01-23 23:50:01,409] [WARNING] [partition_parameters.py:836:_post_init_method] param `class_embedding` in CLIPVisionEmbeddings not on GPU so was not broadcasted from rank 0
[2024-01-23 23:50:01,619] [INFO] [partition_parameters.py:453:__exit__] finished initializing model with 13.22B parameters
Formatting inputs...Skip in lazy mode
…
